quickdraw_model.pth (torch, 263120 bytes, 4 tensors)

conv1.weight f4 [32, 1, 3, 3]
0	0xbbd5a4f3	-0.0065199076
1	0x3b5d1e72	0.003374007
2	0xbea13407	-0.31485006
3	0x3dba45df	0.09095358
4	0xbdd66c1d	-0.1046984
5	0xbe269f9a	-0.1627182
6	0xbe1b6e76	-0.15178856
7	0xbe6e5546	-0.23274717
8	0xba228b34	-0.00062005525
9	0xbc4caf50	-0.01249297
10	0xbd1df2f9	-0.038561795
11	0xbd37f853	-0.044914555
12	0x3d196e20	0.03745854
13	0xbdf30631	-0.11866415
14	0x3dad1aac	0.08452353
15	0x3c2c10a8	0.010502018
16	0xbe1653f3	-0.14680462
17	0xbce44941	-0.027866961
18	0xbe67f6da	-0.2265276
19	0xbdeae84d	-0.11470089
20	0xbe3bb76d	-0.1833169
21	0xbe8ea687	-0.27861425
22	0xbd7e1e6a	-0.062040724
23	0xbdb583c9	-0.08863027
24	0xbc76ff8e	-0.015075577
25	0x3ccfb4fe	0.025354858
26	0xbab982b2	-0.001415333
27	0xbce7b13b	-0.028282752
28	0xbd4d4cb8	-0.050121993
29	0xbd4a5fa5	-0.04940762
30	0xbd74a153	-0.059724163
31	0x3e0ac41d	0.13551374
32	0xbe67793f	-0.22604845
33	0xbe0a5fc8	-0.135131
34	0x3d662f39	0.05619738
35	0xbc0400c6	-0.008056825
36	0x3cce5ad1	0.025189789
37	0xbe470e1e	-0.19438979
38	0x3c90b8f7	0.017666323
39	0xbd36f118	-0.04466352
40	0xbe5565a9	-0.20839562
41	0xbba3c4d5	-0.0049978294
42	0x3c79cc06	0.015246397
43	0x3cdac26d	0.026704038
44	0xbe2e2aa0	-0.17008448
45	0xbe9d7104	-0.30750287
46	0x3c3eb3e5	0.01163957
47	0xbe1b2453	-0.15150575
48	0xbe65b7fa	-0.22433463
49	0xbe61dbfa	-0.2205657
50	0x3e71f1fb	0.23627464
51	0xbde05431	-0.10953558
52	0xbdfe6d5e	-0.12423204
53	0xbe02f380	-0.127882
54	0x3d4ddcd2	0.05025942
55	0xbe61eb2d	-0.22062369
56	0xbd9d5e6a	-0.07684024
57	0xbd8b00eb	-0.067872845
58	0x3e3cf689	0.1845342
59	0xbd692d93	-0.05692823
60	0x3cd09298	0.025460526
61	0xbe770a4e	-0.24125025
62	0xbc19a49a	-0.009377623
63	0x3d5ea5ac	0.054357216
64	0xbe281979	-0.16415967
65	0xbe542b16	-0.20719561
66	0xbe12b238	-0.14325798
67	0x3e00077f	0.1250286
68	0x3e1ef37e	0.15522572
69	0xbe1503c9	-0.14552225
70	0xbe5fd42e	-0.21858284
71	0xbe013f80	-0.1262188
72	0x3cd09ba6	0.025464844
73	0xbd21f80d	-0.0395432
74	0xbdf4e778	-0.11958212
75	0xbdd76cf8	-0.10518831
76	0xbe42f00a	-0.1903688
77	0xbe102855	-0.14077885
78	0x3d45d97b	0.04830311
79	0xbd3a9826	-0.045555256
80	0x3c733526	0.014844215
81	0xbb4610b6	-0.0030222363
82	0xbdf2ecb1	-0.118615516
83	0x3c3616a6	0.011113798
84	0x3d4debf7	0.05027386
85	0xbcca2d81	-0.024679901
86	0xbcffd497	-0.0312293
87	0xbd88faf9	-0.06688494
88	0x3d0a079c	0.033698663
89	0x3c2472f3	0.010037172
90	0x3a53b998	0.0008076667
91	0x3d116b7f	0.035502907
92	0xbc254db4	-0.010089327
93	0xbdd1e093	-0.10247912
94	0x3e12c106	0.14331445
95	0xbe25f32e	-0.16206047
96	0xbd37a048	-0.04483059
97	0xbe63bda6	-0.22240314
98	0xbe447ca4	-0.19188172
99	0xbbc6487d	-0.0060511217
100	0xbe384148	-0.17993653
101	0xbd0cca63	-0.0343727
102	0x3cbf1122	0.0233236
103	0x3e4fe45b	0.20301954
104	0xbde0c7a8	-0.109755814
105	0xbbe48d34	-0.0069748405
106	0xbe13ddbd	-0.14440055
107	0xbd4571f7	-0.04820439
108	0xbd5fdf6d	-0.054656435
109	0x3d2a7d19	0.04162321
110	0xbe5d7c36	-0.21629414
111	0xbdded26f	-0.10879981
112	0x3e0c1f52	0.13683823
113	0xbd73515a	-0.059403755
114	0x3d382eb3	0.04496641
115	0xbe68f5ee	-0.22750065
116	0x3d0a4528	0.03375736
117	0xbd9b4b1d	-0.07582686
118	0xbd6f1be5	-0.05837621
119	0xbdb37ed7	-0.08764427
120	0xbdc8eda9	-0.09810955
121	0x3e89e2ab	0.26930746
122	0xbd9fe1c2	-0.07806732
123	0xbb1fdc46	-0.0024392768
124	0xbe5142a0	-0.20435572
125	0x3a9db0e3	0.0012030866
126	0xbe3b3185	-0.18280609
127	0xbd621efb	-0.055205327
128	0xbd7c06e0	-0.061529994
129	0x3d40c8e2	0.047066577
130	0xbe571abe	-0.21006295
131	0x3dde89c7	0.10866123
132	0x3d079a0d	0.0331059
133	0xbd08a18c	-0.033357188
134	0xbddc3e6a	-0.10754092
135	0xbe2d3cee	-0.16917774
136	0xbd9219ce	-0.07133828
137	0x3d7993fa	0.060932137
138	0xbdbd4223	-0.0924113
139	0x3e4be6dc	0.19912285
140	0xbe388681	-0.18020059
141	0xbde53162	-0.1119106
142	0xbdbd681b	-0.09248372
143	0x3d9e41bd	0.07727382
144	0xbe698637	-0.22805105
145	0xbe232f2c	-0.15935963
146	0x3d601a8d	0.05471282
147	0xbcfbf9d8	-0.030758783
148	0x3d1c5fab	0.038177174
149	0xbd318156	-0.043336235
150	0xbee7a288	-0.4524119
151	0xbe18ec14	-0.14933807
152	0x3d572b3f	0.052531477
153	0xbc30abfb	-0.010783191
154	0xbdae9082	-0.085236564
155	0xbde9a4a4	-0.11408356
156	0xbdadfbdd	-0.08495305
157	0xbae2ef6d	-0.0017313786
158	0x3db4b02f	0.08822667
159	0xbdbc1384	-0.0918341
160	0x3e33db61	0.17564155
161	0xbe5cbb7e	-0.21555898
162	0x3bcf52e3	0.0063270195
163	0x3d537c12	0.051631995
164	0xbd915f70	-0.070982814
165	0xbd4f9804	-0.050682083
166	0xbe4a94b8	-0.19783294
167	0xbe54b4cd	-0.20772095
168	0xbcbf4aa2	-0.023351017
169	0x3b5c7c4f	0.003364343
170	0x3c832a18	0.016011283
171	0xbea103e4	-0.3144828
172	0x3dc6dd34	0.0971016
173	0xbeb3ec2a	-0.35141116
174	0xbc93d6bf	-0.018046735
175	0x3bc20f3b	0.005922226
176	0xbca72209	-0.020401971
177	0x3bf93fcb	0.0076064817
178	0x3cd8836a	0.02642985
179	0x3b876107	0.0041314396
180	0x3cec5359	0.028848337
181	0xbe3c7603	-0.18404393
182	0x3b8ea164	0.0043527354
183	0xbde17984	-0.110095054
184	0x3e5ba747	0.2145053
185	0xbdbf04d7	-0.09327095
186	0x3e099a59	0.13437785
187	0xbe85415f	-0.26026437
188	0x3deeb677	0.11655896
189	0xbe09f953	-0.13474016
190	0xbe2c39f4	-0.16818982
191	0xbda7cc59	-0.08193273
192	0xbe2f6aa1	-0.1713052
193	0xbdb95631	-0.09049643
194	0x3d523cac	0.051327392
195	0xbe73fb78	-0.23826396
196	0xbd64f01c	-0.05589305
197	0x3ca1dd1f	0.019758759
198	0xbdc03735	-0.0938553
199	0x3dac09af	0.084002845
200	0xbb02c325	-0.001995274
201	0xbe306f32	-0.17229918
202	0x3dbee708	0.093214095
203	0xbde76f26	-0.11300497
204	0xbe006f8a	-0.12542549
205	0xbea21e11	-0.31663564
206	0xbc2a1668	-0.010381319
207	0x3c549811	0.012975709
208	0xbe52642e	-0.20546028
209	0x3d9cb303	0.07651331
210	0xbbf0f8c5	-0.0073538744
211	0x3d091def	0.033475813
212	0xbd5c7692	-0.053824015
213	0xbf054414	-0.52057004
214	0x3d50ad34	0.05094643
215	0xbde3608e	-0.11102401
216	0x3cbcc223	0.02304179
217	0xbd3457bc	-0.044028983
218	0x3d2afe4f	0.041746434
219	0xbd1bdec9	-0.03805426
220	0x3db2418f	0.087039106
221	0xbd233af4	-0.039851144
222	0xbd0f505d	-0.03498875
223	0xbdebb616	-0.115093395
224	0xbbae3e3e	-0.0053174784
225	0x3ca7cb39	0.020482646
226	0xbd1faa0b	-0.038980525
227	0x3cfe8098	0.031067178
228	0xbe9f0dd5	-0.3106524
229	0x3e068bd2	0.13139275
230	0xbe9437bb	-0.2894877
231	0xbe59f9fa	-0.21286765
232	0x3d5560cf	0.052094277
233	0xbb92b16e	-0.0044767177
234	0xbf1593a4	-0.58428407
235	0xbe481d84	-0.1954251
236	0xbe95c3d4	-0.29250968
237	0xbcdffdfb	-0.027342787
238	0xbe127422	-0.14302114
239	0xbe88375a	-0.2660473
240	0xbe489c92	-0.19590977
241	0xbda0ab52	-0.07845177
242	0x3d6e53ff	0.058185574
243	0x39d962c3	0.0004146305
244	0xbd9a6313	-0.07538428
245	0x3c374d71	0.011187897
246	0x3d3b0818	0.045662016
247	0xbd79ba9e	-0.060968988
248	0xbe606a89	-0.2191564
249	0xbe1bcda6	-0.15215167
250	0x3dcc9a96	0.099904224
251	0xbd2e0ff7	-0.042495694
252	0xbe87db9f	-0.26534745
253	0x3e499bac	0.1968829
254	0xbe5e6651	-0.21718718
255	0xbe354e64	-0.17705685

conv1.bias f4 [32]
0	0x3e1e9f53	0.15490465
1	0xbddf0c8d	-0.10891066
2	0x3ec372d4	0.38173544
3	0xbe794c9c	-0.2434563
4	0xbe584d4b	-0.21123235
5	0xbdaf97b4	-0.08573857
6	0xba034bae	-0.00050085306
7	0xba02a419	-0.0004983559
8	0x3e0c31e8	0.13690913
9	0xbebd249a	-0.36941987
10	0xbea0e69d	-0.31425944
11	0xbdcb6e63	-0.09933164
12	0x3de16fdb	0.11007663
13	0x3ed60a96	0.4180495
14	0xbe8f00ac	-0.279302
15	0x3e901c1c	0.28146446
16	0x3eb6d4d2	0.35709244
17	0x3e1fd7ce	0.15609667
18	0xbe7f3fc4	-0.24926668
19	0xbed2f7b9	-0.41204622
20	0x3c1e0bf3	0.009646404
21	0x3e97eee2	0.2967444
22	0x3d8e492d	0.06947551
23	0xbe6ee03f	-0.2332773
24	0xbebef8bd	-0.37299147
25	0xba885123	-0.0010400157
26	0x3e833862	0.25628954
27	0xbde14d8e	-0.110011205
28	0xbc3c797d	-0.011503574
29	0xbe9e6859	-0.30938986
30	0xbe86af09	-0.26305416
31	0xbecec099	-0.40381315

fc.weight f4 [12, 5408]
0	0x3c06e536	0.008233359
1	0x3b52b360	0.0032150373
2	0xbbaa55cc	-0.005198216
3	0x3c8a9c40	0.016920209
4	0x3c866f54	0.016410507
5	0xbc17ba47	-0.009260721
6	0xbcb2d45e	-0.02182978
7	0xbc844a7d	-0.0161488
8	0x3b9a714a	0.004713212
9	0x3c7069ba	0.014673645
10	0x38d1396b	9.9765915e-05
11	0xbd014438	-0.0315592
12	0xbd548b53	-0.051890682
13	0xbbc6cfc2	-0.006067247
14	0xbc6aff49	-0.014343091
15	0xbc37afc6	-0.011211341
16	0xbcc63412	-0.024194751
17	0xbd167f11	-0.036742274
18	0xbd341e23	-0.043974053
19	0xbd615b94	-0.055018976
20	0xbd88cbaf	-0.066794746
21	0xbd069ce8	-0.03286448
22	0xbccd5de9	-0.025069194
23	0xbd20e904	-0.03928472
24	0xbc9ea985	-0.019367943
25	0xbcff1d26	-0.031141829
26	0xbc460688	-0.012086518
27	0xbd576bd5	-0.05259307
28	0xbd860288	-0.065434515
29	0xbd8b5436	-0.06803171
30	0xbd229489	-0.039692435
31	0xbce8c0e1	-0.028412284
32	0xbcf2908c	-0.029609941
33	0xbd2ce982	-0.042214878
34	0xbcc430dd	-0.023949081
35	0xbd9fb2aa	-0.07797749
36	0xbd36d055	-0.044632275
37	0xbcec134c	-0.028817795
38	0xbd3e6cc8	-0.04649046
39	0xbca1687e	-0.019703146
40	0xbc9a5800	-0.01884079
41	0xbd518f6c	-0.05116217
42	0xbd4d6282	-0.050142772
43	0xbd089da6	-0.03335347
44	0xbcf86a38	-0.030324087
45	0xbc42e03a	-0.01189428
46	0xbbd8828a	-0.0066073583
47	0xbcadab86	-0.021199953
48	0xbcbf1cd5	-0.023329178
49	0xbd75c4cf	-0.060002144
50	0xbd37e33e	-0.04489445
51	0xbd044074	-0.03228803
52	0xbc84d4ee	-0.016214814
53	0xbd17161a	-0.036886312
54	0xbc83b2e1	-0.016076507
55	0xbc4a7873	-0.012357819
56	0xbd2c0693	-0.041998457
57	0xbcd7af2e	-0.02632865
58	0xbce9f8ec	-0.028561078
59	0xbcd2ce7b	-0.025733223
60	0xbba7d345	-0.005121621
61	0xbcf9245b	-0.030412843
62	0xbd242349	-0.040072713
63	0xbd8298be	-0.063767895
64	0xbcb7892d	-0.022404278
65	0x3aaa1702	0.0012976828
66	0xbcd4e9ab	-0.025990328
67	0xbb951244	-0.0045492966
68	0xbbf09c83	-0.0073428764
69	0xbcb33a00	-0.021878242
70	0xbd3fcd43	-0.046826612
71	0xbccff944	-0.025387414
72	0xbbf31f15	-0.0074194768
73	0xbca1bc0f	-0.019742994
74	0xbd028b99	-0.031871412
75	0xbcac750a	-0.021051902
76	0xbd0b6465	-0.03403129
77	0xbcf71292	-0.030160222
78	0xbd696de3	-0.05698956
79	0xbd3fbd85	-0.0468116
80	0xbb94d377	-0.00454181
81	0xbb0ca7e1	-0.0021462368
82	0xbcf5be5d	-0.029997999
83	0xbd2bf42c	-0.041980907
84	0xbd353178	-0.04423663
85	0xbc886ba4	-0.01665289
86	0xbd31dcbf	-0.04342341
87	0xbd10ea26	-0.03537955
88	0xbcdb9904	-0.026806362
89	0xbc8614de	-0.016367372
90	0xbc78b994	-0.015180964
91	0xbd126209	-0.035738025
92	0xbd5b3c91	-0.053524558
93	0xbbed15f9	-0.0072352854
94	0xbd2e6045	-0.04257228
95	0xbd301776	-0.042991124
96	0xbd7d9743	-0.061911833
97	0xbd345fa7	-0.044036534
98	0xbd5c24b4	-0.05374594
99	0xbd18a71f	-0.037268754
100	0xbcf58e38	-0.029975042
101	0xbc94d75a	-0.018169094
102	0xbc7eaf30	-0.015544698
103	0xbc4bca93	-0.012438434
104	0xbbf25899	-0.0073958156
105	0xbd6bcab5	-0.057566363
106	0xbcf234bc	-0.029566161
107	0xbd543cef	-0.051815923
108	0xbd6781d4	-0.056520298
109	0xbda1263a	-0.07868619
110	0xbd83fa30	-0.06444204
111	0xbd79fa85	-0.06102993
112	0xbcbe1c75	-0.023206929
113	0xbc3ad875	-0.011404146
114	0xbc45d35a	-0.012074316
115	0xbcc381f1	-0.023865672
116	0xbc20247f	-0.009774326
117	0xbcf83c46	-0.030302178
118	0xbd8f497b	-0.06996437
119	0xbd65fae6	-0.05614748
120	0xbd6c4337	-0.05768129
121	0xbd86d7a6	-0.065841004
122	0xbd8fe6ad	-0.0702642
123	0xbda17c77	-0.07885068
124	0xbd6712f6	-0.056414567
125	0xbd41ef35	-0.047347266
126	0xbc41e322	-0.011833938
127	0xbb988f3d	-0.004655747
128	0xbca4bc8a	-0.020109434
129	0xbc087490	-0.008328572
130	0xbc9ac21d	-0.018891389
131	0xbd563811	-0.052299563
132	0xbd51eb49	-0.051249776
133	0xbd838e71	-0.06423653
134	0xbd804283	-0.06262686
135	0xbd89faef	-0.06737315
136	0xbd752b7d	-0.059855927
137	0xbd760a55	-0.060068447
138	0xbd16b71c	-0.03679572
139	0xbd2884fb	-0.041142445
140	0xbcad7df3	-0.021178221
141	0xbc58cb15	-0.013232012
142	0x3b4a55af	0.0030873825
143	0xbc58b243	-0.013226095
144	0xbd8c5a5b	-0.068531714
145	0xbd87dcf2	-0.06633939
146	0xbd5a11f6	-0.053239785
147	0xbd7ca22f	-0.061678108
148	0xbda8bd6c	-0.08239254
149	0xbd57b1d3	-0.05265982
150	0xbd1af5e0	-0.03783214
151	0xbd4c8675	-0.049932916
152	0xbd1889c5	-0.037240762
153	0xbce56987	-0.02800442
154	0x392ce9f6	0.00016490355
155	0x3bfab50f	0.0076509784
156	0xbc869a6b	-0.016431054
157	0xbda01a99	-0.07817573
158	0xbd291c39	-0.04128668
159	0xbd323378	-0.043506116
160	0xbd3e82c4	-0.046511427
161	0xbd2491ea	-0.040178217
162	0xbcd77d5a	-0.02630489
163	0xbcc3485b	-0.023838213
164	0xbcd949af	-0.026524393
165	0xbcc1c678	-0.023654208
166	0xbc9a3aa2	-0.018826786
167	0x3c2e638e	0.010643853
168	0x3ca82ff5	0.02053068
169	0xbb6247b3	-0.00345276
170	0xbc767007	-0.015041358
171	0xbcfc2a3e	-0.030781861
172	0xbcf7ce18	-0.03024964
173	0xbd007e14	-0.031370237
174	0xbcef1d3b	-0.029188743
175	0xbcbd486e	-0.023105826
176	0xbc8620ba	-0.016373027
177	0xbcbfa4f9	-0.023394095
178	0x3b888983	0.0041667833
179	0xbb396bba	-0.002829297
180	0xbbc8e041	-0.006130249
181	0xbbe3c51c	-0.0069509875
182	0x3be15e00	0.0068776608
183	0xbbc30cb7	-0.0059524435
184	0xbc200c3d	-0.009768543
185	0xbd1b3208	-0.03788951
186	0xbd5ebe43	-0.054380666
187	0xbd018bca	-0.031627454
188	0xbd6a0287	-0.057131317
189	0xbd6f6379	-0.058444474
190	0xbd43ed34	-0.047833636
191	0xbcb573f1	-0.022150012
192	0xbb9d39ca	-0.0047981488
193	0xbad3ef88	-0.0016169408
194	0x3c118b74	0.008883346
195	0x3c8ce669	0.017199712
196	0xbc0d126c	-0.008610349
197	0x3abef933	0.0014570117
198	0xbba522f6	-0.005039568
199	0x3b257a21	0.0025249796
200	0xbcb2c71f	-0.021823464
201	0xbd713de9	-0.058896933
202	0xbd35ad25	-0.044354577
203	0xbd40ddf5	-0.047086675
204	0xbc40264c	-0.011727881
205	0x3b248f59	0.0025109856
206	0x3c4e48aa	0.012590567
207	0x3c09be48	0.008407183
208	0x3bc76f55	0.00608627
209	0x38a36ac2	7.792331e-05
210	0x3c0f406a	0.008743385
211	0x3c1caa4c	0.009562086
212	0xbb7a48b1	-0.00381903
213	0xbcaa0a07	-0.020756735
214	0xbd1e2303	-0.03860761
215	0xbd10ee73	-0.035383653
216	0xbcb92f0b	-0.02260544
217	0xbc359345	-0.011082475
218	0x3b560a31	0.0032659883
219	0x3c4bd95e	0.012441961
220	0x3b4bd32a	0.0031101205
221	0xbaaa13ae	-0.0012975836
222	0x3aa52413	0.0012599252
223	0x3c8910b2	0.016731594
224	0x3c40a70f	0.01175858
225	0xbb78917b	-0.003792851
226	0xbc5fdb8e	-0.013663186
227	0xbc5bef4c	-0.013423752
228	0xbbe98976	-0.0071269823
229	0xbc787eec	-0.015166979
230	0xbc2ee07c	-0.010673638
231	0xba9fa860	-0.0012180917
232	0x3b97bf4c	0.0046309587
233	0xba600d1a	-0.0008546874
234	0xbc844182	-0.016144518
235	0xbaa65b02	-0.0012691917
236	0x3a1c2c65	0.0005957543
237	0x3add2760	0.0016872697
238	0xbb4b919f	-0.0031062139
239	0xbb421e02	-0.0029619937
240	0x3bdd55c1	0.0067546074
241	0x3c2148a9	0.009843984
242	0xbb3b8494	-0.0028612958
243	0xbbf37f0c	-0.0074309167
244	0xb8e55e1c	-0.000109371
245	0x3beafb4f	0.0071710716
246	0x3caad072	0.020851348
247	0xbd09553a	-0.033528544
248	0xbc20abe4	-0.009806607
249	0xbc830def	-0.015997855
250	0x3ad3c914	0.0016157948
251	0xbc5f4a8e	-0.013628615
252	0xbc57ca07	-0.013170726
253	0x3bd33c00	0.0064463615
254	0x3beec361	0.0072864746
255	0xbbd14e6c	-0.0063875224

fc.bias f4 [12]
0	0x3b434725	0.0029797044
1	0xbcf5725d	-0.02996176
2	0xbd5f6685	-0.05454113
3	0xbbd17d44	-0.0063931067
4	0xbd9e13fa	-0.07718654
5	0xbc5f3ad1	-0.013624863
6	0xbd4cce5f	-0.0500015
7	0x3ce9c268	0.028535083
8	0x3c2abd82	0.010421159
9	0x3ddfdd7e	0.10930918
10	0x3d2992b6	0.04139968
11	0xb9964f57	-0.00028669342
